tests/integrate/902_OF_KE_CPN5/net.pt (torch, 181487 bytes, 8 tensors)

weight f8 [100, 16]
0.19055367902411574 0.18701646257001958 0.006062090843673381 -0.04893597287733506 -0.16012903020463565 -0.12635836040408585 -0.16378749997337916 0.22849713511217878
0.006653513153550463 -0.08186573693959451 -0.19971805025873113 -0.0320762054022636 0.1672693234736017 0.21280816684512513 0.08535757425630276 -0.1520329560290871
-0.10074271637765765 -0.18492116371061193 0.15848701243225768 0.07349699299626676 -0.1127571555015701 0.21174619599429992 -0.05378783211129342 -0.1716878713506552
-0.2286644496181865 0.1114386113126895 -0.18807628298826373 -0.12559041114688746 -0.06741907937725906 0.2050853620356071 -0.09979482585319084 -0.17842839906051414
0.0879627507609021 -0.09280315764936599 0.060691438139037365 0.1392321760017182 -0.06231980514881665 -0.04223851357899714 0.20019301220769994 -0.06415421539653308
-0.017197265051589118 -0.04028657762295273 0.17840285642322914 0.2049736497274957 -0.03898319290242345 -0.06766408223612351 0.2223469845934232 -0.22629961061145276
-0.14199763261592144 0.06848504048707633 -0.220644742401812 0.3544643702751245 -0.22077164350763315 0.0008163649215382606 -0.03304206095361981 -0.049613283637403
-0.005564169198912742 -0.2741092730476679 0.02522858299807289 0.20734287006911603 0.17390646489467132 0.04190107922947269 -0.14823133148882628 -0.16622142728322556
-0.3096098760268628 -0.12526562530858737 -0.20362077514381652 -0.057327862108935014 -0.26233523634169204 0.1626838081459618 -0.07004977734552655 -0.1293717045913983
-0.19570459097293744 0.0905929525909544 0.0831498531409962 0.2333134262116239 0.18991205978564316 -0.21671610134801883 -0.051066573158578286 0.07270551974618557
0.07464150184966754 -0.030364693020259924 0.1116938823528723 -0.27883268797676103 0.09561926368278838 -0.03500773431948383 -0.13999959649959848 0.26839074357171194
0.10640251303281581 -0.01983091420703075 0.1305978524042367 -0.14976435041028976 -0.21171255696661576 0.07434700952551826 0.19656957146998041 0.18138647024340804
0.02194454898212872 -0.2587437467693241 -0.09219235490489074 -0.17134215661506463 0.19508792922485646 0.022147003386039605 -0.19565676126491133 -0.25539750447068377
-0.012771571308132106 -0.19924532996492808 0.24770152774554322 -0.007517700575787778 -0.0002830229987145933 0.23847793915127546 0.042923991455444 0.24375386849045064
0.1319440296603439 0.19157501823999146 -0.11418184050078706 -0.05132733328608406 -0.11046737989598238 0.04233832866577356 -0.01911898539142293 0.004054800845388355
-0.13130916986006502 0.15897014336188642 0.21519901366924143 -0.14392995953708548 0.1498850411967516 -0.0954006228728893 -0.13821968823519978 0.07077291381364176
0.11373696988619833 0.19858354737467462 0.013968691947147891 -0.12119269292024153 0.09437045856164074 0.09681890362426535 0.01714170701272106 -0.12569731431159253
0.08695228328104729 0.17475042362426432 -0.19203785880274185 0.07321249685749656 0.02594666707617233 -0.24592326793473174 -0.012894388910968802 -0.09091298575710184
0.16374958850842122 0.19817431716715816 -0.0034875945440380317 0.21941172124967762 -0.10844970840197607 0.10191295666832267 -0.14594377423043237 -0.007800658970192586
0.21118114495066148 0.1493119357138039 -0.215404166591264 0.1583611885645605 0.12272138964894273 0.2437046618378042 -0.23109189148244932 -0.14103844066355226
0.07911539493902618 -0.24184503626075773 -0.07132508231871412 0.16349405774060308 -0.11203535676832965 0.1880402992733621 0.06902476279655745 -0.09645882093090954
-0.1370441854131794 0.21777388238347575 0.24175713702700918 -0.15317979357624614 -0.10290835351248324 0.13124777774533813 0.008006435446142346 -0.030673719630317214
0.2603393412129791 -0.1119626360461246 0.17852573341759895 -0.01433924962058386 0.29575358972669996 0.023583589244904654 -0.024866812399299703 -0.15496106113253239
0.1252995844931396 -0.13362486585609737 -0.13554811048265833 -0.08294549136123336 -0.1709512970764193 0.1894682081933262 0.18042002802140056 0.015667600332667068
0.218987126097982 -0.046487033896452194 -0.12867768434998944 -0.23289357395822563 0.006594546455195302 0.007946309417829003 -0.20230812731073505 -0.15463794692242894
0.0009653432516168108 -0.178284178651042 -0.15109316759849656 0.029461876199249365 -0.2172871036572751 0.01770912836956436 0.05955394032695248 0.1294431433422825
-0.01209989197266205 -0.2591135748689687 -0.1133968272801897 -0.22480435635461019 -0.14053605085258575 -0.0696179897352584 -0.14451627307074055 -0.2425607310317377
0.11739369838140952 0.05253247018507523 -0.0993400377843239 0.20230822872280424 0.1414526529555603 0.14119876670428208 -0.2076996532224912 -0.014121095748170978
0.20008562126301707 0.061264485194056355 -0.19325300759839248 -0.09108731023095988 0.14066699814501324 0.1345509793354169 0.08773073027248675 0.21725173945363638
-0.03274249966150811 -0.10029042521573972 -0.17059723417285994 0.09075649019566297 0.034556744393036264 0.005047127583297814 0.1345011155093026 0.21197534982980354
0.014876302807946646 -0.013370267452034495 -0.040800857139779705 -0.029467997312514354 0.21712043504430797 -0.3126431924802805 0.014159130013508145 -0.27351992096991434
-0.04560923582583244 0.02200710154324032 -0.01346783018370988 -0.010572994904813969 -0.08077418839127487 -0.18205859290714793 -0.11959822168525043 0.0257161719144327
00000000: 6641 c51d 1064 c83f c4a2 46cb 27f0 c73f
00000010: 890d b41e 90d4 783f 5c52 36c6 220e a9bf
00000020: e03e efa9 1b7f c4bf 5f80 c1c0 822c c0bf
00000030: bc8b f021 fdf6 c4bf 12ac 44e5 643f cd3f
00000040: 8f3a 5ed6 b640 7b3f 0e89 d126 27f5 b4bf
00000050: fc1c 246f 5c90 c9bf bb70 5dda 4a6c a0bf
00000060: 9db9 f8c8 1469 c53f 7ff4 754a 4c3d cb3f
00000070: e98e e575 fed9 b53f bd91 07df d075 c3bf
00000080: 69f9 2650 46ca b9bf f3d7 3c27 7fab c7bf
00000090: 975f 9e6b 4d49 c43f 6ff7 45ed b2d0 b23f
000000a0: 43ec 4427 a7dd bcbf c988 6cd5 7f1a cb3f
000000b0: fb75 ae27 148a abbf e313 4940 def9 c5bf
000000c0: 0219 6f6e e044 cdbf 2083 19a7 3d87 bc3f
000000d0: 243e 4b36 e212 c8bf ee95 48ba 5813 c0bf
000000e0: dd3f 0d75 6042 b1bf 7b66 6ab5 3c40 ca3f
000000f0: dd76 5959 278c b9bf ed3e 52e5 bdd6 c6bf
00000100: 28c6 c811 ba84 b63f a1ce 119f f2c1 b7bf
00000110: 86a3 e8bb f212 af3f cb38 3d25 5cd2 c13f
00000120: 93b7 03aa 61e8 afbf e529 e854 49a0 a5bf
00000130: 35ef 28b4 ec9f c93f 8f55 0721 696c b0bf
00000140: 1aac e8eb 289c 91bf 4f79 b73a 71a0 a4bf
00000150: 77e5 eca0 e7d5 c63f 8288 0f99 933c ca3f
00000160: 4d19 38e5 9af5 a3bf c768 51ec 6e52 b1bf
00000170: 31b3 98b1 dd75 cc3f 983c 56b9 62f7 ccbf
00000180: 63ef 187a fa2c c2bf 2540 2851 3c88 b13f
00000190: 5d37 5340 163e ccbf 0173 7b53 8baf d63f
000001a0: 25ee 5fc6 3e42 ccbf 70b0 de51 2ac0 4a3f
000001b0: 6d60 6096 e3ea a0bf 5cf2 568d e966 a9bf
000001c0: d1e1 d14b 74ca 76bf cb48 d19e 018b d1bf
000001d0: adc5 9a8b 85d5 993f 81b8 000f 368a ca3f
000001e0: 108e a429 9142 c63f 5b56 eae9 0e74 a53f
000001f0: 7457 7e88 3ef9 c2bf f5b6 0965 be46 c5bf
00000200: 9374 03f1 a5d0 d3bf 32b6 013a b408 c0bf
00000210: bdb1 03dd 3e10 cabf 5da0 d0d9 135a adbf
00000220: 8d43 2bbb 19ca d0bf b7ae c9b1 d2d2 c43f
00000230: b986 ca3e c8ee b1bf dab8 1f84 408f c0bf
00000240: 03f2 f318 d90c c9bf 7450 a088 1931 b73f
00000250: 5f64 e80b 4f49 b53f 19f8 a5df 36dd cd3f
00000260: 4f9a f2d2 094f c83f e236 e76b 5abd cbbf
00000270: ab0f 45db 6525 aabf b96d 8c35 d49c b23f
00000280: 8f5f 5e99 b41b b33f 867f e60d ec17 9fbf
00000290: 7b6d de63 f897 bc3f 1b9f fa0e 65d8 d1bf
000002a0: ef9a 620a 817a b83f 16bb 04a4 88ec a1bf
000002b0: dca0 35bc 81eb c1bf d122 8c5e 502d d13f
000002c0: 1a2b b0f1 313d bb3f fd3b e01f 8e4e 94bf
000002d0: 1b84 8030 6eb7 c03f 6b37 8f6d 7a2b c3bf
000002e0: cd7d 29a6 6519 cbbf 2cae 77d6 6708 b33f
000002f0: 2f18 6d14 3129 c93f b0ef d0fe ab37 c73f
00000300: 209a d0c0 a178 963f d8cc 9aee 418f d0bf
00000310: a7fa 410d eb99 b7bf 723d 8b2f 8aee c5bf
00000320: 4abc ee29 a4f8 c83f 4561 fd3c b4ad 963f
00000330: a6e1 6fdf 470b c9bf 589f 4bc6 6e58 d0bf
00000340: bc17 b248 fb27 8abf 8d40 0af8 de80 c9bf
00000350: 580d 6b04 afb4 cf3f cd78 d361 e1ca 7ebf
00000360: 2ac5 0386 568c 32bf 4071 bcf2 7186 ce3f
00000370: fea2 0727 22fa a53f f350 b8a6 5333 cf3f
00000380: b495 25be 8ae3 c03f 8c22 09bb 8785 c83f
00000390: e07a bf66 053b bdbf 2e91 b583 9347 aabf
000003a0: d494 ed17 9747 bcbf 6d3d f991 5ead a53f
000003b0: 9198 f463 ed93 93bf 9120 5d50 c49b 703f
000003c0: b060 1b27 bdce c0bf 50ce 6337 2259 c43f
000003d0: f0a0 eb2a a48b cb3f 662d 9002 4c6c c2bf
000003e0: b0c1 0cdb 6e2f c33f 98d0 41db 2c6c b8bf
000003f0: 7f16 51c8 2eb1 c1bf 14b0 4576 2c1e b23f
00000400: 42e2 01b6 dd1d bd3f ffba bf88 2f6b c93f
00000410: 3fae a518 9e9b 8c3f ab4a 9bfc 7b06 bfbf
00000420: c113 3b91 a928 b83f 5667 b3a8 1fc9 b83f
00000430: 32aa 117c 988d 913f c2e7 147f d916 c0bf
00000440: 262f 013d 8142 b63f 89d4 36cd 385e c63f
00000450: 0169 9351 b294 c8bf d254 a9df 0dbe b23f
00000460: 0123 215a c391 9a3f 8474 8de4 697a cfbf
00000470: ad68 6595 5f68 8abf 71c4 9bcc 1246 b7bf
00000480: af45 b01b bff5 c43f 00ee 91a9 c65d c93f
00000490: 1c6a 4410 0492 6cbf fa2e 90eb ae15 cc3f
000004a0: a6e3 d82e 5cc3 bbbf 38da edaf f716 ba3f
000004b0: 18f0 af1c 49ae c2bf a6ab a072 95f3 7fbf
000004c0: 8e26 8cd7 fb07 cb3f f688 654c a71c c33f
000004d0: 263f 771d 5d92 cbbf bc94 ebee 2d45 c43f
000004e0: 7fd7 0f43 ab6a bf3f 1ef1 3ce0 b631 cf3f
000004f0: efd9 244a 6b94 cdbf 4e7c 1031 8c0d c2bf
00000500: bf8c df11 e840 b43f 454e b834 c7f4 cebf
00000510: ae81 f14f 5c42 b2bf 7309 8b8f 5fed c43f
00000520: a0cf 5061 59ae bcbf 31c5 da5b b411 c83f
00000530: 904b d35a 9bab b13f 1a19 4f79 86b1 b8bf
00000540: bf70 3af3 a98a c1bf fd46 61bb 03e0 cb3f
00000550: 2484 8dda e5f1 ce3f 7db4 e83d 659b c3bf
00000560: 2d42 d2ac 3358 babf 3461 8b28 bacc c03f
00000570: 4d92 3093 ad65 803f ebb2 a27a ee68 9fbf
00000580: b4cd 1757 66a9 d03f 932a 3154 95a9 bcbf
00000590: b9f1 4265 eed9 c63f 0051 5b81 e55d 8dbf
000005a0: f23f e376 a0ed d23f dcdc 1de2 4b26 983f
000005b0: 8b04 0b88 af76 99bf 0cdd db98 c3d5 c3bf
000005c0: acda cc18 d109 c03f c564 649e 9e1a c1bf
000005d0: d75f c7f6 a359 c1bf 1445 bf6c ea3b b5bf
000005e0: c774 136b bbe1 c5bf 1b39 e986 7e40 c83f
000005f0: d099 f2e3 0018 c73f 5175 24dc 2a0b 903f
00000600: 7cfd 6a28 c507 cc3f b7ee 8b04 26cd a7bf
00000610: 360d 01a7 8278 c0bf 80b0 cce5 74cf cdbf
00000620: fd56 b615 e202 7b3f ae78 9698 2746 803f
00000630: cade 4193 3be5 c9bf 2c4f 601e 2dcb c3bf
00000640: bd50 f9d8 e2a1 4f3f 3ea8 5916 04d2 c6bf
00000650: 0807 be5a 0557 c3bf c8af 040b 412b 9e3f
00000660: b478 0656 10d0 cbbf 9574 c07c 5722 923f
00000670: 7eb9 1aa4 da7d ae3f 895b acc9 9791 c03f
00000680: 0834 7602 d4c7 88bf 72c2 801a 5195 d0bf
00000690: ad79 a310 9307 bdbf f54b 459f 63c6 ccbf
000006a0: 9211 29d7 15fd c1bf 8c4e 200d 7cd2 b1bf
000006b0: c010 4a5d 827f c2bf 089f 89e3 3a0c cfbf
000006c0: 05fd 4d6f 830d be3f 9092 d832 89e5 aa3f
000006d0: 4292 7745 596e b9bf b2be 096d 3ce5 c93f
000006e0: 6c33 30db 1e1b c23f 937e 9d1a cd12 c23f
000006f0: 0596 fdf8 e695 cabf f56a 6063 85eb 8cbf
00000700: 6fbc dcd7 679c c93f af26 a100 0f5e af3f
00000710: e08e beb9 83bc c8bf bbc7 857a 7f51 b7bf
00000720: bf64 544e 6001 c23f 37f8 f16b f738 c13f
00000730: 0de1 5f69 8575 b63f e7ea f9ad e7ce cb3f
00000740: 508f 78fa 9fc3 a0bf 204e 6720 a2ac b9bf
00000750: 0abe c752 21d6 c5bf 1d45 4a3d d13b b73f
00000760: f373 0cee 6bb1 a13f 6347 8bfe 4bac 743f
00000770: 1aa9 3122 5537 c13f 8ee0 891d 0222 cb3f
00000780: 973b 5d90 7777 8e3f 36e5 8feb de61 8bbf
00000790: 97d4 2096 d9e3 a4bf 9b86 f1d2 db2c 9ebf
000007a0: 0b80 e737 9aca cb3f 0645 c197 5802 d4bf
000007b0: d85a c842 76ff 8c3f c7b2 d7b2 5981 d1bf
000007c0: 02f6 8800 185a a7bf 71c2 a195 0789 963f
000007d0: 7836 7f91 0595 8bbf 2c13 b25a 4ba7 85bf
000007e0: 3c60 8001 9ead b4bf 22f9 3e2b b24d c7bf
000007f0: bd43 cc32 fd9d bebf ae38 6715 5755 9a3f

bias f8 [100]
-0.07482333342702643 0.08744465646415761 -0.06658784750448585 -0.11336956610087083 0.24623133935463806 0.26579745458324266 0.28402147145043904 0.09432870659975298
-0.20602005213345306 -0.08848645118279262 0.17819615789865378 -0.7459871974453254 -0.23115891500247346 -0.03238432626548424 -0.16462356589511515 -0.12827422730257038
0.36905903197693957 0.35954330679897867 0.38949659839748285 -0.3419069332891327 0.20604540461929657 0.40119884232905867 0.1530552770611032 0.26295181265049994
0.09473846231956626 -0.008567287938294792 -0.334402775815793 0.01660422787708344 -0.03237424255866655 0.28425266303641517 -0.3991974754013082 -0.01834862966289024
-0.12185681926186996 0.37518997081775474 0.34128480386786075 -0.09890532407994436 -0.24809890959136835 0.08506634063874426 -0.24761624388827283 -0.2650693575874366
-0.15861872476469188 0.29347364335401394 -0.23758853927156193 0.21861959214321133 -0.09421957766363655 -0.3338841871969517 0.2551993309835789 0.19381963823942727
0.15613667027656972 -0.25636404539179086 0.6948154015950946 0.061416379596085646 -0.32604749628247687 -0.366549831611114 0.26040830882920696 0.2621314028455188
-0.20479775893413915 0.0738884545202065 -0.2944309183617514 0.5997138641628722 -0.320347643172904 -0.11238174231208728 -0.1877595940875329 -0.15032662301060867
0.02557852733586935 -0.2623767633492766 -0.052106577363116316 0.024072722844417825 0.042514864753279924 -0.10209386026249682 -0.01126234956174769 -0.4066211398511542
0.569896165934815 -0.22130980983685633 0.28327043735730406 0.15029925783352746 0.33929104387441084 0.5204925195486853 -0.29917166724818817 0.1801543258249253
-0.015861575569341594 0.12159610720119278 -0.009162602948428994 0.3650444936568851 -0.01888422158440488 0.2778630093355468 -0.062271954063696275 0.04274866476879702
0.07785990701129711 0.19942610927840457 0.5268628191902788 0.41466439790254794 -0.06403101528781763 0.20503832326717247 -0.09483713527913697 -0.20778775330971463
0.23526535510808846 -0.0702382495805547 0.08111780043520883 0.03409900097655824
00000000: eaf9 0b3a 9f27 b3bf 1438 b9e3 c562 b63f
00000010: dec1 57b3 e60b b1bf cbd3 c3b2 c905 bdbf
00000020: 31a4 e32e 8284 cf3f 78e2 b253 d302 d13f
00000030: a573 cf64 682d d23f c67f eb15 ed25 b83f
00000040: ebdf 1d75 dd5e cabf 271d f84d 0ca7 b6bf
00000050: fa49 39b7 21cf c63f 5065 088b 20df e7bf
00000060: dda6 0e86 9d96 cdbf ec2e 6dac ad94 a0bf
00000070: 57d0 d58f 6212 c5bf 3294 9735 4a6b c0bf
00000080: 9499 28c6 a99e d73f b1a0 0cee c102 d73f
00000090: ce4e 0124 83ed d83f 9c28 309e cde1 d5bf
000000a0: 195d 2a21 b25f ca3f 7cc4 bfe8 3dad d93f
000000b0: 8394 bab8 5097 c33f 1080 f0d6 33d4 d03f
000000c0: 46fb 55a5 c740 b83f 1648 15ec b98b 81bf
000000d0: 4382 74e6 da66 d5bf f261 d4de b200 913f
000000e0: 9763 0b52 5b93 a0bf 3ab5 e214 3231 d23f
000000f0: f9a3 5f91 738c d9bf ee69 50b1 fbc9 92bf
00000100: 7739 862d 0232 bfbf cec3 9ccb 1c03 d83f
00000110: bafd ce37 9cd7 d53f 39da 52fc db51 b9bf
00000120: c720 6f7f b4c1 cfbf 45a7 085f e8c6 b53f
00000130: dbaf ba9a e3b1 cfbf 11a0 8077 e5f6 d0bf
00000140: cde3 b24d 9e4d c4bf 9c61 1cad 45c8 d23f
00000150: d6b2 091f 4d69 cebf c38d 420f bafb cb3f
00000160: f14f b534 c61e b8bf 9265 2ac8 5b5e d5bf
00000170: 7746 2293 2f55 d03f 48cb c7f7 14cf c83f
00000180: 6ba8 4552 49fc c33f f9fd b4bd 4468 d0bf
00000190: 0b75 5382 ed3b e63f 089a 9bbb f771 af3f
000001a0: 7875 5e51 f6dd d4bf 4cf0 c76c 8d75 d7bf
000001b0: 96cc 819c 87aa d03f 7f78 9eca c2c6 d03f
000001c0: ae46 751e d036 cabf 7d5d b78f 5aea b23f
000001d0: c2e0 52c7 f4d7 d2bf bf31 3121 db30 e33f
000001e0: accf b166 9380 d4bf b6dd e5c3 0cc5 bcbf
000001f0: 46df 0ea2 8108 c8bf 523b c61c e73d c3bf
00000200: d0b2 8ce9 4131 9a3f bc30 74e8 c7ca d0bf
00000210: 52b6 5c9b b6ad aabf 56aa 5e15 85a6 983f
00000220: 501c 6b23 82c4 a53f 4327 f3be d222 babf
00000230: 95c1 59f8 b610 87bf 0278 61ac 1406 dabf
00000240: 46c9 59e2 963c e23f 6c42 c43d e153 ccbf
00000250: 20e3 1754 1a21 d23f 8308 818e 013d c33f
00000260: fd0a 51c8 f1b6 d53f 9bc6 a8ed dfa7 e03f
00000270: f920 aeeb a025 d3bf 6453 d304 4c0f c73f
00000280: f15a 5551 043e 90bf 2b02 c027 ec20 bf3f
00000290: 50f0 13c0 d7c3 82bf 3dd6 7594 e35c d73f
000002a0: ec34 76a8 6256 93bf f550 77ee 81c8 d13f
000002b0: e6bb 520c 1ce2 afbf 9061 422a 27e3 a53f
000002c0: b27a 487a a0ee b33f d5dd a874 cb86 c93f
000002d0: c9d1 3c6a 0fdc e03f 78a5 f38a dc89 da3f
000002e0: 2042 972c 5664 b0bf aaf9 6d1e b23e ca3f
000002f0: 6960 781a 3f47 b8bf bbbd 7c02 ca98 cabf
00000300: b518 09d7 2c1d ce3f e173 e048 22fb b1bf
00000310: 0c20 fedb 22c4 b43f bc8a 0a9c 6c75 a13f

weight f8 [100, 100]
0.09740742917996684 -0.0597872888126797 -0.08043218537912962 0.05851483622492985 0.006420293495797107 -0.06646100429711732 0.06984987160007514 -0.0023956399227807713
0.06131639796722077 -0.06962335892117617 -0.007010383353817772 -0.11410278254799074 -0.04740917559774062 0.08313759892555159 0.00677618312089878 -0.09027802070782023
0.0012589756334786975 0.05815732712929922 0.07649098721620691 0.05890351598335174 -0.06184836482674315 -0.0743527140561968 -0.033089940664581444 0.033856830090311076
0.005564755746855035 -0.07341361220021338 -0.036571683285068136 0.04820555502569593 -0.021960986952193774 -0.004192473265975375 0.030418034411927496 -0.09213063488340313
0.05205514018449622 0.04313055017563262 0.040978529609744845 0.016714325652709066 -0.07830111658375828 0.04022999978767482 -0.10970088414819729 -0.07064000063820011
0.06154337924200154 0.06289036779460373 0.08126908818521307 0.009062772011483427 -0.0354730060967632 0.0624878353177608 -0.0183787777055681 0.009958364735585338
0.05737610050220054 0.06550790433811694 0.03509564701245101 0.06940151379615593 0.013658929234301488 -0.060274518566021874 -0.06159519941772978 -0.00014410280722011297
0.065532445157011 0.017669629379451178 -0.07221722858811319 0.08194398068284357 0.02981170289003881 0.00534009680309764 -0.0694555396144696 -0.05720612057567568
0.042485090939397875 0.02451531980933512 0.03041463825164828 0.05328858725835746 0.08612569892443503 0.06412116214219062 0.006031065818530454 0.03407012131479243
0.10405089593477022 0.10005165799308822 -0.07308823780891495 0.014051874172636905 -0.06844150524386135 0.03350233578980411 0.06391671826735754 0.07458874630732881
0.0680554186365122 0.03263939975783224 0.08092158437677938 0.04229409801540829 -0.049569016999350714 -0.001397678407351146 -0.07195286422414858 0.024193601024926816
0.08261525790813787 -0.033396868722540246 0.07368297388845747 0.06638852143018605 0.028099314192514588 0.06255947171717359 0.04288215056674976 -0.02288580721551311
0.029744678310674004 -0.10450788485406118 0.03535243284922257 -0.005524957456162831 0.035530487937986174 -0.006323132411818966 -0.10024983157711524 -0.03761914117279806
0.011378158776542947 0.03135171192510695 -0.01290240839880815 -0.039777684343640575 0.07688361056656616 -0.06545250410810488 0.07360479614954892 -0.04289345260474156
-0.08307496962527106 -0.0799294054250966 0.04390570491150649 0.04281614248679615 -0.0032335519557502744 -0.0072131876891252 -0.045756995401301674 0.08015112024749413
0.026280479656913894 0.04716571296975168 -0.05179015579939924 -0.032995218739484966 0.0372037894783634 -0.019203084996762883 0.11098006179445181 0.08199887847094077
-0.03718890184591173 -0.10685378844327652 -0.09787014542132681 -0.02570436040943316 -0.05715310452077967 0.09398819888588829 0.037602589718584385 0.07337665931697704
0.05220591928514021 -0.022711931210484492 -0.002893690718731032 0.0027808662497081967 -0.043425199564082494 0.04404582458033455 -0.028805299246762568 -0.03852884888538644
-0.06043735461764975 0.06630352525103488 0.08258553072354057 0.08565708119212463 0.04985863143315725 -0.033126573941973554 0.1022427345027821 -0.021332583584450115
-0.05882241323906881 0.09346751214207859 0.07195113710606192 0.08375655161425234 0.07523908786839344 0.001536879713729934 0.013543356005350416 0.0187443971004898
-0.09947840505833085 -0.056556954917552985 -0.07272550801038859 0.0012253909860957236 -0.059072650555927905 -0.02166317957821085 0.1586221538356003 0.08148075229945433
-0.12338391292582064 -0.07946671456421552 0.1017927622988237 0.06813549997557829 0.01873429415889543 0.05118071692690767 0.04019487297126916 -0.08868948702658383
0.09681824356113798 0.11330815627095192 0.03612242916281558 -0.08772603891216756 0.0950474828493274 0.047308458990409134 0.1065480014072401 -0.001653138070034409
-0.0030429173719087373 0.08396112721311104 -0.09451277940435276 -0.08604646142652976 -0.08738418268404012 -0.0018123426493671822 0.005257676130884422 0.043651172274058944
-0.0026297595709131798 -0.010890829191124935 -0.06807408665427295 0.05961363717582011 0.026828657295738564 0.020966716125403906 0.08642894693825348 -0.04045317934767946
-0.08656492120810368 0.008772741842835193 -0.07880805344386825 0.021148758439823417 -0.08346564648470246 -0.08605076450837942 -0.03008364380288263 0.09396671286556785
0.06076504453347488 -0.07817616885818815 0.037213887283193706 -0.11185433882119829 -0.0655128794948769 0.015400661117541764 -0.060498594292860516 0.05942449342997109
0.07729716745143068 0.010779904388392601 0.0791739287572759 -0.022109333793137058 0.08516147262981796 0.10483391744023948 -0.023829479803272234 0.12550383482649718
0.023630270650904676 0.09823398798327508 0.07176671429035553 0.08220123298071447 -0.001997543049289808 0.09319814514587377 -0.0010022136038892282 -0.027720521138701305
0.022757228709448164 0.07202445763040911 0.10613903960957281 0.019081890522306917 0.06399277654304213 0.07777813304106501 0.04901533194019121 0.04341712161746097
0.09794665906743023 0.09126670885120482 -0.07714078955898604 0.09947291376870587 -0.048031903838996554 -0.07862334528490031 0.06380041271404023 0.04575634366121717
-0.0831501118997921 0.015916175389649838 -0.07770413978630476 0.100735922605971 -0.025548181983082972 -0.12424662342659153 0.08208724060865612 -0.006870278912396031
00000000: 0a24 b77a b1ef b83f 917c 5584 709c aebf
00000010: adc9 bf25 3497 b4bf f66f d517 a8f5 ad3f
00000020: 12d1 8569 2a4c 7a3f e859 ea9f 9603 b1bf
00000030: 76f1 2662 aee1 b13f bbfa e163 05a0 63bf
00000040: 9099 f4e7 dc64 af3f b5a7 9a21 d6d2 b1bf
00000050: 0c0a cb73 ebb6 7cbf bd1c 6d07 d735 bdbf
00000060: e2fa 71f5 0346 a8bf 7e05 7474 8148 b53f
00000070: fee1 55ce 57c1 7b3f d2d9 7cda 751c b7bf
00000080: c92c 06cb 86a0 543f 0013 1614 ccc6 ad3f
00000090: ed48 88d0 e994 b33f 5e2b 8905 9a28 ae3f
000000a0: 5edf 7bc0 96aa afbf 0f7e 3d8b c708 b3bf
000000b0: 1a40 f629 2af1 a0bf e5dd f7b3 ae55 a13f
000000c0: 2968 16bf 11cb 763f 312c 7b07 3ccb b2bf
000000d0: 158c 560f 86b9 a2bf 044c a404 66ae a83f
000000e0: 0d7f fde2 f07c 96bf 7747 1179 202c 71bf
000000f0: e604 08bc e725 9f3f d9af c88f df95 b7bf
00000100: 03ba 5ca9 f8a6 aa3f f2f7 ec1c 3515 a63f
00000110: b727 0649 23fb a43f 6b5a 3668 8f1d 913f
00000120: b9af f7be 8a0b b4bf eef2 cfca 0699 a43f
00000130: 3440 c26d 5b15 bcbf 1ace 878c 7615 b2bf
00000140: e86a 4222 9d82 af3f ad46 e948 9519 b03f
00000150: 1965 ee0b 0dce b43f 4312 34ab 808f 823f
00000160: c31e 2792 8429 a2bf 0fdc 2cd2 67fe af3f
00000170: 6b54 bee4 e2d1 92bf cf48 e316 0d65 843f
00000180: 4f3a 7576 6660 ad3f 59ff c242 20c5 b03f
00000190: 1b06 4d80 0ef8 a13f 4321 0c30 4cc4 b13f
000001a0: 14ac e072 36f9 8b3f 05e2 0b3c 4ddc aebf
000001b0: 67f3 2dee 6789 afbf 6271 44b0 49e3 22bf
000001c0: 03ba c6fc bbc6 b03f c6cb 44c1 fc17 923f
000001d0: 4863 fe0a d47c b2bf d709 23dd 47fa b43f
000001e0: ae9a cd83 f586 9e3f e948 0752 7fdf 753f
000001f0: e090 2b97 d6c7 b1bf 95d2 01e2 1e4a adbf
00000200: 3dfa 4d18 9bc0 a53f 8c0b 5443 8b1a 993f
00000210: e826 71d2 0325 9f3f daa3 0c47 a448 ab3f
00000220: 52c0 3974 550c b63f 4dd9 6196 3e6a b03f
00000230: b0b4 35e7 07b4 783f d9b4 a291 a371 a13f
00000240: 57ca 285b 14a3 ba3f 07ab fd46 fc9c b93f
00000250: 398f 1c27 e9b5 b2bf 55e0 26a0 3ac7 8c3f
00000260: 1d1e b6ea 6185 b1bf 6117 1dd9 3727 a13f
00000270: 063e a096 d85c b03f 6824 0a82 3f18 b33f
00000280: 3702 5c75 146c b13f 3ebb 0a85 1cb6 a03f
00000290: 5c53 70e6 46b7 b43f 807a 946f 92a7 a53f
000002a0: b56c d035 1c61 a9bf a389 31c3 49e6 56bf
000002b0: 373d b2be 806b b2bf b7b8 b214 35c6 983f
000002c0: f2b5 dd06 4626 b53f b47b e7f5 6419 a1bf
000002d0: 7179 1f2b e3dc b23f 8158 5f90 d6fe b03f
000002e0: cccd fc0d 11c6 9c3f 618e 14c5 e503 b03f
000002f0: 775d 8834 a6f4 a53f 76fc 2186 606f 97bf
00000300: ae2b 4c92 6375 9e3f ca50 9f5b 07c1 babf
00000310: e8c7 d7cd b619 a23f c54c 6079 56a1 76bf
00000320: cebd 6857 0d31 a23f 3332 acee 48e6 79bf
00000330: b39f 0d14 f9a9 b9bf 6ee0 14ea d042 a3bf
00000340: 94ec ab9e 6e4d 873f 59ad c8e2 540d a03f
00000350: 2c6f e6f0 936c 8abf 1dac bb9a bd5d a4bf
00000360: 5b57 fbf0 a4ae b33f f0ea 95cc 7ec1 b0bf
00000370: dd82 4a90 c3d7 b23f 84be 4c70 21f6 a5bf
00000380: a01f a8b5 6644 b5bf a61d 4ae6 4076 b4bf
00000390: 73ce 67fd ce7a a63f 267e 7157 ffeb a53f
000003a0: 26b0 cbfc 3f7d 6abf b361 9853 938b 7dbf
000003b0: f7a5 9ffd 756d a7bf 6664 33a8 c884 b43f
000003c0: d43a 9922 45e9 9a3f ae2c 65b5 1a26 a83f
000003d0: 4b8a d342 3d84 aabf 1027 d2d2 bfe4 a0bf
000003e0: f994 3106 600c a33f 5272 2c38 f9a9 93bf
000003f0: 7d4c ea77 3069 bc3f f763 57e5 e0fd b43f
00000400: c199 677a 6c0a a3bf 9f4c d116 c55a bbbf
00000410: 7be0 d691 040e b9bf 07de 4a6d 3e52 9abf
00000420: 4b30 90f5 2b43 adbf e9c1 6c50 9c0f b83f
00000430: c925 2c8a a540 a33f da5f 0e10 d0c8 b23f
00000440: 757e f9f7 bbba aa3f 93b4 1ce7 cb41 97bf
00000450: 14d5 0d60 82b4 67bf 0c02 1b33 e6c7 663f
00000460: 6b67 e6e7 d33b a6bf 9d1e 32a0 2c8d a63f
00000470: e287 dde8 227f 9dbf 119d d4a3 0dba a3bf
00000480: 3e41 141b a5f1 aebf 6f0d 9090 44f9 b03f
00000490: bf95 9449 5324 b53f 0d18 645a 9fed b53f
000004a0: 3c82 db0e 1287 a93f a929 6b5f f7f5 a0bf
000004b0: 606c f170 942c ba3f e06c 5673 35d8 95bf
000004c0: f466 44aa f81d aebf 8782 e3a3 7ced b73f
000004d0: ffd1 c7c4 636b b23f 894a 02c2 1171 b53f
000004e0: 0b8f c66d de42 b33f 9f4d ef06 242e 593f
000004f0: 0df1 f778 9ebc 8b3f 9e8e 1e32 bb31 933f
00000500: e13e 62b0 6a77 b9bf b2e7 767f 08f5 acbf
00000510: c156 7d8e 239e b2bf 762f 728d a913 543f
00000520: 0e95 733c c53e aebf a15e 435f df2e 96bf
00000530: d88e 9211 bb4d c43f a32f 612e ecdb b43f
00000540: f970 de8e 1696 bfbf e982 2c3c ee57 b4bf
00000550: befe 0a29 170f ba3f cd7a 1700 5471 b13f
00000560: ae86 e732 152f 933f 0718 c6e2 5b34 aa3f
00000570: 87c7 c121 6c94 a43f b637 47ae 5ab4 b6bf
00000580: ef51 c095 14c9 b83f 90c5 8d69 c301 bd3f
00000590: ac0f d097 a37e a23f 77a8 22b4 3675 b6bf
000005a0: e8ac 6726 0855 b83f df3c 6078 d038 a83f
000005b0: da8d 7fd5 ba46 bb3f c89b 947c c315 5bbf
000005c0: ccce 18d3 75ed 68bf dbfe 83f7 797e b53f
000005d0: 9083 9850 fd31 b8bf d372 c311 2407 b6bf
000005e0: e7cd d04e cf5e b6bf cc96 1f1a 84b1 5dbf
000005f0: d6cd 8fb0 1289 753f 26c3 b24a 7259 a63f
00000600: 2f2d 4f6b 018b 65bf fd1c 9e59 ee4d 86bf
00000610: a89a e2a7 4d6d b1bf edaa 21bc ad85 ae3f
00000620: bc20 b9b6 f878 9b3f 00a4 4080 4c78 953f
00000630: 6c0b 871c 3520 b63f 2290 a274 47b6 a4bf
00000640: c1d2 9161 1e29 b6bf 1165 7d7a 71f7 813f
00000650: f3ec 33bc c32c b4bf 5872 6627 05a8 953f
00000660: 79c5 fd2d 015e b5bf 3efa 5b43 6c07 b6bf
00000670: 3c90 1c29 3fce 9ebf 9c94 abd6 330e b83f
00000680: a2c3 058e 981c af3f d28e 9278 5a03 b4bf
00000690: da3b add9 b20d a33f 9d1a 2767 7ca2 bcbf
000006a0: 7db4 e5ba 73c5 b0bf 3066 b1be 618a 8f3f
000006b0: ae34 e2f7 abf9 aebf 49e7 b91f e36c ae3f
000006c0: 21ff 4646 bfc9 b33f 3fcf 6a46 c613 863f
000006d0: 5f55 b51a be44 b43f 7ebd 4f46 d4a3 96bf
000006e0: 2e03 d36b 24cd b53f 3eda ea46 65d6 ba3f
000006f0: 6634 be51 c166 98bf 281b 0d79 8210 c03f
00000700: 91a7 909e 8832 983f 376b bed5 dc25 b93f
00000710: 2086 d1aa 4d5f b23f d0d1 57d7 230b b53f
00000720: 35ac 35c2 265d 60bf 280b 7369 d5db b73f
00000730: ae74 bfa9 966b 50bf ca0c e0ae c462 9cbf
00000740: fafb 37c4 ab4d 973f 09e5 08e2 3170 b23f
00000750: e7b3 f397 ed2b bb3f 82e6 f4fe 338a 933f
00000760: ffbe 6ea2 d461 b03f 145c c189 44e9 b33f
00000770: ca14 5f9f 8918 a93f 17ed ddda c43a a63f
00000780: 7d73 7241 0813 b93f 19bf ba49 415d b73f
00000790: 36ed 57b0 7fbf b3bf 9473 798f 0e77 b93f
000007a0: 0c64 4e40 a397 a8bf 2e65 b3d8 a820 b4bf
000007b0: b7fe 134e 3955 b03f c00b 381f 606d a73f
000007c0: 6cb2 4463 5349 b5bf 9e91 1a73 544c 903f
000007d0: b15f 2523 6be4 b3bf 2202 2055 d4c9 b93f
000007e0: 86bf 5b78 4d29 9abf 7f71 4170 a0ce bfbf
000007f0: 7f43 d55d ab03 b53f 24e6 e373 0224 7cbf

bias f8 [100]
-0.06719805302664009 -0.11436041276124101 0.10079984572930191 -0.021708032817031434 -0.022304056670338027 0.07591685920675134 0.19982714700002394 -0.04526035967036828
-0.05356110265974295 -0.05456667325949552 -0.2028704138891295 -0.08549527010712228 0.07518298612547858 0.09572708954532226 0.057551332757135386 -0.0837312734460167
-0.07053515784778515 0.03487389412577472 0.16543265193223225 0.10301547118455098 0.23585423277974923 0.0015593020073171883 -0.10962869349707118 0.031383159625388554
-0.19828133060886857 -0.005639711496632091 0.31590700918638615 0.055475958448706765 -0.1266771675315813 -0.16738120346799454 -0.10224307545159511 -0.006739642767658522
-0.024680519158964246 0.1426020065339708 -0.08860455243382735 -0.16982020577700196 0.04093924157759662 0.0034661152456282995 0.11018920041687215 -0.06947040866371783
-0.0350629341256217 0.06609221362632017 -0.08454352304649944 -0.058326046392227535 0.10922228416178743 -0.009429621659080747 0.014240690386073793 0.13687259354517803
0.06389941732334546 0.07413548561615739 0.0466022470303996 0.03891149383217089 0.06621013081542934 0.12789600149671176 -0.06400998875020689 0.030979511109864376
0.04615058998804451 -0.14079737173117562 -0.1091059764965989 -0.11893373732298178 0.08611528036034534 0.08813007229807267 0.03735252157939212 0.006768722490162628
0.08284735430459447 -0.15697950483926873 0.15142217395683114 -0.00012173954883541247 0.27619663865831406 0.0465306767731793 0.10876507982342132 -0.05318634122993257
0.019674136965350388 -0.0071320238370902065 -0.17615285037094724 -0.11537261016475851 -0.007059023374768155 -0.12557622821215494 0.010951461712862492 -0.14505447298901114
-0.028796076550222312 0.14034676362279416 -0.01592361390203028 0.08851038368139241 0.09748763777136311 0.06178730039443101 -0.10912810189131562 0.1132617142009773
-0.01713358155995639 -0.13025780481551097 -0.10071032505468108 -0.039525332159321074 -0.027653025395453588 -0.04793981418082169 0.1156198457468386 0.1411389115954389
0.08145075451950066 -0.03448985416808399 0.04924337620638465 -0.047540070381325135
00000000: f2b2 1a40 e433 b1bf 523f c458 b946 bdbf
00000010: f964 d9c8 04ce b93f 51e0 096c a13a 96bf
00000020: 3172 dee7 dfd6 96bf 7c0e 828b 496f b33f
00000030: 49ea 9b9a ef93 c93f a7c9 2da9 5d2c a7bf
00000040: 67c8 8560 5c6c abbf f4bc 33ba 29f0 abbf
00000050: ef69 7d60 a8f7 c9bf 7da1 129d 04e3 b5bf
00000060: a8e2 9f32 313f b33f 773c f00e 9281 b83f
00000070: cbf3 1048 5e77 ad3f 1f63 1aa9 696f b5bf
00000080: c5a7 2c94 970e b2bf a53c 82b5 fdda a13f
00000090: 91a7 deaa e52c c53f be3c b8cf 385f ba3f
000000a0: c7c2 34b4 7830 ce3f 069f 10c8 2f8c 593f
000000b0: c1eb 4545 a010 bcbf 16ee 7818 7411 a03f
000000c0: 95ac 2f5b 4861 c9bf 6395 fd86 aa19 77bf
000000d0: c217 4208 d237 d43f 1dbe 8046 5867 ac3f
000000e0: db59 d919 f536 c0bf ab19 6e4d bf6c c5bf
000000f0: 949b 4e29 9a2c babf 2e8d 6114 079b 7bbf
00000100: 7151 8b9a d945 99bf 1f25 3455 c840 c23f
00000110: a7e1 fab6 c9ae b6bf 3890 0123 abbc c5bf
00000120: dbcb 65ff fcf5 a43f 9cf5 f873 f864 6c3f
00000130: e5b0 2904 5c35 bc3f bb1b 400d d0c8 b1bf
00000140: 4421 bed6 c4f3 a1bf 2c98 0b58 6beb b03f
00000150: 3dc6 92f2 a4a4 b5bf c6e9 845b e9dc adbf
00000160: c523 78da fdf5 bb3f 6880 1d65 d64f 83bf
00000170: 455e d81b 392a 8d3f 0964 7f88 0a85 c13f
00000180: 2721 a353 b65b b03f 13c9 310e 8bfa b23f
00000190: eed3 d4ed 3fdc a73f 4636 e512 35ec a33f
000001a0: 7622 84aa 25f3 b03f 7cd8 db6b e55e c03f
000001b0: d6a9 4c68 f562 b0bf 5672 40cc 17b9 9f3f
000001c0: ba27 61d5 0ca1 a73f 1e5d 79f5 a505 c2bf
000001d0: 8edd d988 5eee bbbf 9379 3100 7172 bebf
000001e0: d163 d5a8 a60b b63f 6f78 5042 b18f b63f
000001f0: 5897 36a5 de1f a33f b5f6 b11b 85b9 7b3f
00000200: 3261 4cf5 7b35 b53f bda5 b687 e717 c4bf
00000210: f953 8442 cd61 c33f 9eda 0486 cde9 1fbf
00000220: 9b5d 93aa 34ad d13f 69cb 006e ded2 a73f
00000230: 28d6 c93c 07d8 bb3f 8c58 5a78 3d3b abbf
00000240: 0771 5ffb 7425 943f f34c 2712 7836 7dbf
00000250: 065f b835 2d8c c6bf ff04 8333 0f89 bdbf
00000260: 7ccd 9428 ece9 7cbf 2bc2 a9c0 e112 c0bf
00000270: e37c 334f b86d 863f 322b d01c 2591 c2bf
00000280: 5f30 25fc b77c 9dbf f7fe edfb e1f6 c13f
00000290: cefd c5a3 474e 90bf 289b 44d3 9da8 b63f
000002a0: 4d07 fe27 f3f4 b83f 8d21 01c5 95a2 af3f
000002b0: 29a0 b2bc d1ef bbbf 10d1 613e b8fe bc3f
000002c0: 667b da31 778b 91bf 909d dda9 49ac c0bf
000002d0: f4b8 7ae0 26c8 b9bf afc3 f911 aa3c a4bf
000002e0: e9f1 d51e 1351 9cbf ec77 2a3c 918b a8bf
000002f0: 0951 4020 4399 bd3f c06a bf00 d710 c23f
00000300: cf51 e5e6 f4d9 b43f ba36 6477 a7a8 a1bf
00000310: 62bc b384 6d36 a93f e11c 130f 2c57 a8bf

weight f8 [100, 100]
0.0025876104794329857 -0.023698595165564166 -0.06252451131156646 0.04136808935323961 0.014309329356830432 0.06867872396932381 0.008977328789140647 0.04591278036628419
-1.6496884466699874e-05 -0.057338923004435396 -0.02239622181400615 -0.07406518814331002 0.061129733712001456 0.011028138189916629 -0.03459741287699724 -0.06661396086411703
0.031224436479086546 -0.09554875131501547 -0.0876747298273574 -0.03440535681489826 -0.020270671883001298 0.034351050661713484 0.007044480846163451 0.07455663703798712
0.04006322654436399 -0.04484782378292247 0.021303964031345792 -0.02343096235573616 -0.01881325582314733 0.03867749349229009 -0.027484039785247705 0.02302395313217248
0.0013206856950174367 0.03362098668736206 0.032192341965631394 -0.07600187016032812 0.08909398357286942 0.012409237233130222 -0.09445184473872957 -0.0942969634243302
0.026653354008379482 -0.04396519303220251 0.063186318173836 -0.10144412169398558 0.074291900018054 -0.02035417823750038 -0.02161293767363573 -0.0032606413912333507
0.05597024585492886 0.09206957211535703 -0.07146362682448124 0.08395576604059606 -0.06019338842562564 -0.001709269398978143 -0.027448783295150752 -0.02720210176682382
0.055652243402210276 -0.03878969989179386 0.09645141113615593 -0.06843865961693278 -0.008038145423240524 -0.09607681709307768 -0.04759640127483541 -0.06408170385923476
-0.031080700386568214 0.029256547256755257 -0.08421630877387117 -0.018726302606591534 0.03371333970562973 -0.07544890507754022 0.030708080637620424 0.08468843344157279
-0.09611766575363781 0.06500096728005432 -0.018024188648804867 -0.001890450866600409 -0.04027711956944145 -0.08460181965230774 -0.07691893341260554 0.024856365456409502
-0.06444048500502067 -0.022758675942385325 -0.045878832647474214 -0.004352892431757695 0.025449236818716595 0.07209746395679917 0.05927242026296276 0.030951056939889733
-0.08178170372807228 -0.0818361374386292 -0.018500836223526506 -0.008813439278558403 0.09195776512943944 0.09970098814477327 -0.07762161788317778 -0.06978116296749451
0.02091404481251236 -0.08608207415282232 -0.013663384375756546 -0.07708607888495855 -0.028058014374030493 0.07568241215874318 -0.09052224726911956 -0.062183893384585395
0.09718192431775566 -0.05824522368139978 -0.047277866788635714 0.08301720566703782 0.07497673757504568 0.008414061535076652 0.09396148930476987 -0.07094492309191822
-0.07530182255910293 0.07295585018430477 0.05187188304750477 -0.03832516051220304 -0.011616200826915555 -0.08729214420328765 -0.05519021500366781 0.05847213393210279
0.017463651879379774 0.016348393972185474 0.035516105537119355 -0.042352824441938254 0.04664364982257877 -0.010973271324509131 0.0848029490097105 0.00239072816335289
-0.03712153508307249 -0.0946521660445 -0.01870415845164909 -0.08121034843061548 0.00030652295957817564 -0.0011735748551676627 -0.021287723003544933 0.0957000639955151
0.0062860193058470034 -0.016131761423824633 0.026092718591474735 0.08791205132170551 0.060891381060490316 0.06311054049245222 0.04014057425486312 -0.03647896253505588
-0.08404549177820424 -0.07826472930917665 0.06738278089051054 -0.08592850897075682 0.020465226213641403 0.012559044402086706 -0.054534198485462315 0.013371237987157667
-0.038266250960949905 0.03517415425038039 -0.09221682422168004 -0.020971712075704092 0.008271971256832527 0.0367729513641868 0.018136016213471707 -0.06639809956527618
0.016193187703952207 0.08560248369808887 -0.00264639138432206 0.03716595127577901 0.05308436231074276 -0.0827850697337242 -0.08087376736872007 0.07726759638399099
-0.06475946802746346 -0.09884189188361678 0.05524957922903057 -0.09509302455990225 -0.01129567722847321 -0.06923049848178464 0.06409002078689528 0.07408543000393654
-0.05847730623653509 -0.002193152492666667 0.03802567599727417 0.07404508693105251 -0.06363699553888365 0.001557835786816057 0.02199393014696837 -0.051617779552817565
-0.09952262261871624 -0.09502623416770252 -0.0732873012266538 0.07285410441645118 -0.07917233907711868 -0.02910759556405761 0.10110894909118222 0.03747391018875756
-0.019887320447460933 0.07242324382501364 -0.05476309149501617 0.03952359322874391 0.057072889117829706 0.039577711186515395 -0.04083431719463063 -0.023014388299050354
-0.03714325895805696 0.06259492027428915 -0.03845315663627814 0.02209287841755963 0.07064638776887146 0.07023008482148757 -0.023490668795677645 0.07169299941405656
0.019764553967589082 0.023892563270302206 0.12969125277182428 -0.037887564069196855 0.06862466315725788 0.01417737985751146 0.06470017484357539 0.07611675183393136
0.05050900888797532 0.09009090661350995 -0.12426387192501084 -0.09337467267077841 -0.0710671960345419 0.07115081436041393 0.03305880827375707 -0.0019868563408365894
-0.0040092907086476115 0.06030186516790154 0.07707114490890164 0.0820555837634173 -0.02826811662854357 0.04995178733333366 -0.07765387273606071 0.07389353018691183
0.12577433904327087 -0.013306877707849503 0.02768691669071801 0.1214148948605091 0.09476312999542398 0.01986472659810547 -0.002342077570300169 0.07224153721474248
0.01984792716716573 -0.05941355715673627 -0.07684707386220059 0.05879824601866827 0.009544881436333018 0.08270650477721167 -0.08230943409062355 -0.02783328170754048
-0.08313444806471583 0.0692538041986056 -0.03334352625014264 -0.05697814709551936 0.009123825114582667 -0.012020813243442612 -0.11040796839512439 -0.041277208965415264
00000000: c554 49cc 9c32 653f c1f9 c9cc 7144 98bf
00000010: 5114 483b 9b01 b0bf e986 bdbd 322e a53f
00000020: 9e17 ecac 354e 8d3f fe16 61c9 ed94 b13f
00000030: 1f3a 70ac b462 823f 9d82 4844 e181 a73f
00000040: f100 b144 594c f1be 1a0f 2ffe 865b adbf
00000050: 4500 fb00 09ef 96bf 8bfc d8a8 eff5 b2bf
00000060: 6d64 367e 654c af3f 6f45 e4a6 eb95 863f
00000070: 7f73 aa89 c0b6 a1bf e44f 5ecf 9c0d b1bf
00000080: f908 0e76 4cf9 9f3f 3e56 120a e275 b8bf
00000090: 7b4c 4be1 d971 b6bf 9886 a734 949d a1bf
000000a0: 8fc4 38c3 d5c1 94bf bcc0 59fe 7596 a13f
000000b0: 5008 a06d acda 7c3f 4224 c7cd 2416 b33f
000000c0: 2e81 8fcf 2a83 a43f 6a8b e340 4bf6 a6bf
000000d0: d7be 28d3 b4d0 953f 5f74 2044 49fe 97bf
000000e0: 0880 f739 c843 93bf ce01 4853 89cd a33f
000000f0: 5d8d 28b0 c624 9cbf f0c5 e856 9793 973f
00000100: 4ac8 9377 5ba3 553f 061d 901c c536 a13f
00000110: 241b d9bf 837b a03f a900 c6ca db74 b3bf
00000120: fd40 b701 ddce b63f ad42 ada0 036a 893f
00000130: 6720 3300 ff2d b8bf ec04 0586 d823 b8bf
00000140: f0c5 2d4f 044b 9b3f 65a5 7814 9b82 a6bf
00000150: 977c 1c82 fa2c b03f 8b0f 0cf1 3df8 b9bf
00000160: 226c ef40 cb04 b33f d8d3 77c7 b9d7 94bf
00000170: e83d eab1 b321 96bf ab66 7584 0fb6 6abf
00000180: 95f3 fdce 21a8 ac3f 2f32 3119 df91 b73f
00000190: de8f 10b4 704b b2bf 0f7a 7405 207e b53f
000001a0: e56c 72f5 aad1 aebf 0767 cb0a 3201 5cbf
000001b0: 9b49 45aa 881b 9cbf 8446 e225 deda 9bbf
000001c0: cb19 b96a 737e ac3f 06f0 e958 3edc a3bf
000001d0: 669b 7b28 0ab1 b83f ab38 d62c 3285 b1bf
000001e0: f1db b49d 4d76 80bf ff8b 5183 7d98 b8bf
000001f0: abf2 c335 8e5e a8bf 42ed 5896 a867 b0bf
00000200: a9d0 c97e 9ed3 9fbf 9285 a5a6 6df5 9d3f
00000210: cd3e f933 338f b5bf 32cc 14e5 fc2c 93bf
00000220: 2001 f3f6 df42 a13f 21b9 d393 9e50 b3bf
00000230: 9ffc 3e68 f071 9f3f a424 fb23 24ae b53f
00000240: d2cf fad6 2a9b b8bf 671b ad44 e7a3 b03f
00000250: 485b 22d3 ee74 92bf 553f 6429 20f9 5ebf
00000260: aed9 a7de 339f a4bf 71b8 9600 77a8 b5bf
00000270: a549 738f f5b0 b3bf ad49 ee72 f273 993f
00000280: 928b a2ef 2b7f b0bf 1bc1 7de3 0c4e 97bf
00000290: c75f 992b 6e7d a7bf cfcf 32aa 56d4 71bf
000002a0: e4d0 605f 5d0f 9a3f 68a9 d1b9 fa74 b23f
000002b0: 511b 2b65 f458 ae3f 9a76 5545 a2b1 9f3f
000002c0: ea58 ec4e a5ef b4bf 330c ee8d 36f3 b4bf
000002d0: 2363 1d1a e2f1 92bf 0fc8 bbcb c70c 82bf
000002e0: f11c d849 8b8a b73f 72ef 7503 0186 b93f
000002f0: e856 45a6 02df b3bf 027e d2a4 2ddd b1bf
00000300: 21be fcc9 7d6a 953f a01a 428d 7909 b6bf
00000310: 8556 5f68 8cfb 8bbf 80ab c9cb e9bb b3bf
00000320: f035 8278 3dbb 9cbf 81ac 1a2d ec5f b33f
00000330: accf 944b 772c b7bf 2e78 d938 91d6 afbf
00000340: 0205 b522 eae0 b83f e839 b865 51d2 adbf
00000350: 7819 5df7 cd34 a8bf 3661 5897 9d40 b53f
00000360: f378 d8eb ac31 b33f d11d f538 643b 813f
00000370: a7be a533 dc0d b83f f63c 7f4c 7229 b2bf
00000380: 7375 38f1 fa46 b3bf 4bed 970e 3cad b23f
00000390: 8ebc 8a92 f38e aa3f 0219 07fe 5a9f a3bf
000003a0: df32 3e15 3cca 87bf 9e03 8d28 c758 b6bf
000003b0: fdfa ff50 e441 acbf fc71 ee3d 0ff0 ad3f
000003c0: b43d c3d6 fde1 913f 2486 cf25 a2bd 903f
000003d0: bec3 86bf 2a2f a23f 2522 bef7 44af a5bf
000003e0: b5ac 1b2d ade1 a73f 564f c08b 2779 86bf
000003f0: 36df 9964 a5b5 b53f 74a8 ce68 b895 633f
00000400: 4277 5106 9801 a3bf c81c a8d5 1f3b b8bf
00000410: 6469 65d3 2e27 93bf c033 9b8e 33ca b4bf
00000420: 608c 3c16 9a16 343f e1a1 d467 543a 53bf
00000430: d316 6de8 72cc 95bf e7f9 15a5 cc7f b83f
00000440: 4f40 7375 5ebf 793f 9703 f82e d884 90bf
00000450: 3574 0eb4 0cb8 9a3f 0edb 5979 6781 b63f
00000460: 62b2 86b4 272d af3f e7ad 722b 0328 b03f
00000470: e9a7 552b 4e8d a43f 7eff 28de 5ead a2bf
00000480: ab49 905e 0184 b5bf 4b2e d044 2809 b4bf
00000490: b1ff 3c78 ff3f b13f 2ccd d227 69ff b5bf
000004a0: 15dc 2b15 d6f4 943f 9acb ce67 8eb8 893f
000004b0: 986b 040e e8eb abbf bf1e e52e 6162 8b3f
000004c0: fcea d550 a297 a3bf aff5 56c4 5802 a23f
000004d0: 0c50 2c94 859b b7bf 926d 06c6 9b79 95bf
000004e0: 3621 2c30 e5f0 803f 2121 f97e e7d3 a23f
000004f0: 1dfc 1072 3f92 923f ee3f 2642 77ff b0bf
00000500: ea04 6d6e f294 903f e08d f05b 0bea b53f
00000510: a4aa 568e e2ad 65bf 8c26 8262 6a07 a33f
00000520: b078 1ba0 df2d ab3f 0d7a 1aff 6631 b5bf
00000530: 7ef5 f3a9 24b4 b4bf 3b80 8227 cfc7 b33f
00000540: c0c8 4895 1394 b0bf 366a 1dc5 b34d b9bf
00000550: d919 d03f ac49 ac3f 5300 9036 0458 b8bf
00000560: ac7c 4222 3022 87bf 7073 dd06 17b9 b1bf
00000570: cf98 471f 3468 b03f f91c fa42 43f7 b23f
00000580: 3a2d b0cb bcf0 adbf 8d88 65c7 5ff7 61bf
00000590: 6517 a2f5 1978 a33f 8160 cc6a 9ef4 b23f
000005a0: 65bb a79e 834a b0bf df44 7170 0986 593f
000005b0: de56 c4aa 9385 963f 339a 2446 a56d aabf
000005c0: 8f0a 5c89 507a b9bf 6927 03a8 a353 b8bf
000005d0: 3607 fbe1 f4c2 b2bf 4c18 d90b 91a6 b23f
000005e0: 2484 156f a344 b4bf 3d21 0dac 61ce 9dbf
000005f0: 6bf7 adad 46e2 b93f 7f8b 6dc5 c72f a33f
00000600: ad29 b57b 575d 94bf e0db b267 548a b23f
00000610: 6676 ff6d e809 acbf 44fc acb8 6f3c a43f
00000620: f0a5 7f60 a838 ad3f fbaa 649e 8743 a43f
00000630: 6594 cf51 3ce8 a4bf c5d4 5374 1591 97bf
00000640: e5c1 fbf4 7004 a3bf e84a 797f 3806 b03f
00000650: 318f 5cd4 21b0 a3bf ce97 1cf9 839f 963f
00000660: 113f 0cb5 e115 b23f 9ceb 804d 99fa b13f
00000670: 6554 f418 f00d 98bf a5e4 d5ef 785a b23f
00000680: 90ae a4c3 283d 943f c148 74c7 4a77 983f
00000690: 85ba 9d14 b999 c03f 5861 34b1 ff65 a3bf
000006a0: c69d f5cb 6291 b13f 4bd9 a5b6 0709 8d3f
000006b0: c1a6 ffce 3090 b03f 9df2 cd2f 637c b33f
000006c0: 578a a71a 51dc a93f 996f 9299 3210 b73f
000006d0: 5e04 fed1 c1cf bfbf 7b4c 650d 67e7 b7bf
000006e0: 4e6a c9b2 7531 b2bf b801 c394 f036 b23f
000006f0: a0d3 c288 15ed a03f be0c 2f60 bd46 60bf
00000700: 60ad 94c7 0b6c 70bf 6960 91d5 e2df ae3f
00000710: af58 d93e efba b33f 2bd3 b740 9801 b53f
00000720: a3a5 c131 51f2 9cbf 7763 f2d9 4793 a93f
00000730: ef22 cfcb 1fe1 b3bf 2aed 89b7 afea b23f
00000740: 69f5 6ea0 5f19 c03f e463 89e4 a240 8bbf
00000750: e6d6 da86 f559 9c3f 8c54 acea 0b15 bf3f
00000760: d56a 3280 6542 b83f 25d5 543c 6b57 943f
00000770: 4759 3652 b12f 63bf a105 c0df 6b7e b23f
00000780: 1533 4ed8 0353 943f 24bb da29 746b aebf
00000790: f90c 08f5 3fac b3bf 25b8 6cbf cd1a ae3f
000007a0: 79ee e74c 448c 833f 6a41 2fe5 402c b53f
000007b0: 8a4d 9227 3b12 b5bf 566c b2ea 5380 9cbf
000007c0: 21e5 9b97 4c48 b5bf d816 2808 9eba b13f
000007d0: 182c 8e15 6712 a1bf 4a4f b95c 3d2c adbf
000007e0: 093a da13 83af 823f 3ce9 033e 5e9e 88bf
000007f0: 7b90 7955 b243 bcbf 493a 274d 4922 a5bf

bias f8 [100]
-0.07580399856371695 -0.04884821788066739 -0.08972169613865409 0.045144125732823136 -0.09652700470121728 0.036244432609195305 0.017970767229225165 -0.14299685717379332
0.06196260357740562 0.16555525141210573 0.076666136459087 0.009240421951348443 -0.04449509074594361 0.06489626490392088 0.007683930756135493 -0.12300162359768257
-0.10298265854532497 0.1420037123550137 0.005045004137341888 0.025243011452582627 -0.004604577088478318 -0.031200575535815907 -0.17917389226653754 -0.14022594801292937
-0.028212199102048335 -0.03808470960414878 -0.1111507935292404 0.08016619698466494 -0.191352047409064 0.13852328844441583 -0.13239089348214803 -0.1796290201013988
0.05236508226694197 0.16370914216611676 0.03230015657141243 0.005044278906553283 0.005256347419924237 -0.05880117822813894 0.07283162804661124 -0.1406851298312444
0.03808014301770437 0.06818689693352141 -0.08737882838569554 -0.10341860093042717 0.14388898078469678 0.10003434136814514 -0.138096801107437 -0.15199814848337984
0.06632410649590074 -0.07720758585593841 -0.006345915969489876 -0.04907806861669981 0.210235915872591 -0.1926902183836837 0.07078457474850124 -0.13134461863044863
-0.1295228478547876 0.049263591624079214 -0.11346142565699797 -0.1288799482511803 -0.0040591106490938484 0.14267261052356814 0.0468031901389686 -0.05185671134209354
1.887346736416667e-05 -0.11797888494938194 -0.11071064286500285 -0.07279136854478953 -0.15178856381754544 -0.13589114100068336 0.1101106956035314 0.04570213767153662
0.16447401790362196 -0.16103797196888794 0.08891579472645188 0.139712298289083 0.14303044150445177 -0.05840502019940879 -0.05866690085813267 -0.09072745239364659
0.000955208714452264 -0.02446424521737432 0.11982245324761591 -0.10312975145499026 -0.10832199671249657 -0.1091887955652523 -0.07799594682359036 0.08629002149249289
0.17951897223172839 0.14761233468579307 0.1574969381284696 -0.061656355834064064 -0.0858045894775548 -0.08738030106343948 0.08640529304546513 0.1664154016846804
-0.035598901883672006 0.1495397288598252 0.01216063283969016 -0.0780274867274121
00000000: d4b8 bc0e e467 b3bf cfdb 8734 a202 a9bf
00000010: 373c a846 00f8 b6bf a30a 427f 211d a73f
00000020: 8460 5f68 feb5 b8bf 61e8 6f59 a18e a23f
00000030: 185b 22c6 ed66 923f 3d01 7f94 b84d c2bf
00000040: b743 e1f7 8fb9 af3f a17e 3f1b ea30 c53f
00000050: 7d6d cd54 64a0 b33f 8083 a870 a4ec 823f
00000060: 023a 2c7f 0fc8 a6bf b117 65a7 0a9d b03f
00000070: 8058 d674 2f79 7f3f 94fa b4ce 087d bfbf
00000080: c9de 814e 125d babf 16d9 3c7a 2d2d c23f
00000090: 8af7 72fc 11aa 743f 12ca 90d2 4dd9 993f
000000a0: ad5d 1cc0 3fdc 72bf 62bb 2b2e 0bf3 9fbf
000000b0: 9f78 ca8b 2bef c6bf 7a10 6282 ecf2 c1bf
000000c0: c855 f7a1 a8e3 9cbf c077 74cc d67f a3bf
000000d0: e0ed 21df 6074 bcbf 6d38 4b9a c585 b43f
000000e0: 5181 d250 397e c8bf b733 cd90 21bb c13f
000000f0: 47a3 e54e 2ff2 c0bf 98bf 5f6f 15fe c6bf
00000100: 27e6 9397 98cf aa3f 9870 d4d1 6bf4 c43f
00000110: b681 4268 a589 a03f 3802 f84e 4fa9 743f
00000120: a964 3d04 ae87 753f 1589 e922 301b aebf
00000130: 0f1b 93f4 17a5 b23f 9150 d467 f801 c2bf
00000140: 93ad c691 3d7f a33f d75e 584c b274 b13f
00000150: 0f84 477a 755e b6bf 9d54 cb34 a479 babf
00000160: 47ce 5c41 f46a c23f 7730 a7c0 d99b b93f
00000170: f625 38ee 27ad c1bf 16f3 64e2 ac74 c3bf
00000180: bb18 56dc 9dfa b03f 3d1e 4158 e0c3 b3bf
00000190: 167f d5d8 2cfe 79bf 1db3 51b7 c220 a9bf
000001a0: 7e06 8faf 02e9 ca3f 4bc7 1bb5 12aa c8bf
000001b0: 1328 9b19 f01e b23f c3fd c284 e6cf c0bf
000001c0: 1780 cf65 3494 c0bf ee5d d1d5 1339 a93f
000001d0: 55e9 8dd8 ce0b bdbf c3ab 6c5d 237f c0bf
000001e0: abba d137 49a0 70bf ebe8 1d9a 1843 c23f
000001f0: 2f9d fd75 96f6 a73f fbb5 957e f68c aabf
00000200: 4273 2ccd 4eca f33e 72e4 793c dd33 bebf
00000210: 6ea0 6c5e 8857 bcbf 69b9 5483 74a2 b2bf
00000220: c367 c0c2 ce6d c3bf e9ff 3483 e164 c1bf
00000230: 2296 8eec 3630 bc3f ee25 5045 4566 a73f
00000240: 0109 f80f 7c0d c53f 01a1 826b e49c c4bf
00000250: 83ad 727e 2fc3 b63f ee13 00b4 17e2 c13f
00000260: 340a 4c4e d24e c23f f77b 5b47 43e7 adbf
00000270: 8432 1689 9609 aebf d34e e110 ea39 b7bf
00000280: 2222 3f18 df4c 4f3f db10 85b4 270d 99bf
00000290: 5b66 062e afac be3f 2069 be1d b666 babf
000002a0: ba4d 5189 fdba bbbf f8d9 0a02 ccf3 bbbf
000002b0: a9ef d3d8 8af7 b3bf 7109 4854 1a17 b63f
000002c0: 5397 5f49 7afa c63f 9518 fb02 f6e4 c23f
000002d0: 4eaf 3d13 dc28 c43f 34b2 cbff 6b91 afbf
000002e0: 231e a721 4af7 b5bf bdd1 612f 8e5e b6bf
000002f0: b4e1 d443 a81e b63f f0a8 e491 194d c53f
00000300: 034f baee 043a a2bf 8eec 732a 1e24 c33f
00000310: 03d5 c282 ace7 883f 57ed aeff 9bf9 b3bf
