tests/integrate/902_OF_KE_MPN/net.pt (torch, 7727 bytes, 8 tensors)

weight f8 [10, 4]
000000 70 e8 d8 2b ef 35 a4 bf ab cb d8 d2 7e 11 d2 bf
       -0.03947398576970407 -0.2823178347636552
000010 47 fc 99 ac 95 68 d1 3f d1 4d dd 2c 07 d5 e1 bf
       0.2720083413659648 -0.5572543979891923
000020 3d ff 86 55 fe a1 cf bf b2 05 9d 06 42 e0 c5 3f
       -0.24713114906443848 0.17090630839269988
000030 9b 51 00 af f3 fd c0 bf fe f3 09 a5 87 55 a5 3f
       -0.13274999661429096 0.041668166061732834
000040 7a b5 b6 d2 49 f7 f2 bf 5a 52 0f 1e 0b e3 a6 bf
       -1.1853731375698247 -0.044700953883567165
000050 c0 c2 98 a4 9b a3 bb 3f b1 d6 51 9a 92 c7 bd 3f
       0.10796520966028833 0.11632648723192564
000060 43 03 44 99 46 7c fb bf 66 cc 19 cf b6 14 bf bf
       -1.7178407656612797 -0.1214098220460059
000070 d0 87 fe 2f 7a ec c9 bf e5 24 3d 6b 18 6e a7 3f
       -0.202529214319894 0.045761836138419366
000080 86 8e 55 6e c3 ed c9 3f 13 5d db 71 44 12 7b bf
       0.2025684632054558 -0.006609217989271404
000090 60 d9 95 4c 91 55 d7 3f d5 48 fe 38 2c 67 e1 3f
       0.3645976303008833 0.5438443291807525
0000a0 f2 6a a3 04 5d b5 ee 3f 6e 10 93 14 c3 34 f0 3f
       0.9596390810578141 1.0128813556375706
0000b0 5a 47 a0 82 04 80 c0 3f 65 5b fe ad d4 74 c6 bf
       0.12890678766467084 -0.17544039245396018
0000c0 f9 fa 28 43 2d ab f0 bf 71 1d 88 84 93 03 ca bf
       -1.041791212410031 -0.20323413821482064
0000d0 89 8c ea 88 55 8c bd bf 85 ef a4 b9 ab 16 db bf
       -0.11542257874184449 -0.423258715909235
0000e0 3d 97 42 43 60 f2 f4 3f 54 8a 88 61 54 d5 ce 3f
       1.3091738345478483 0.24088530313845757
0000f0 26 55 d0 73 30 11 c4 bf 47 c8 d1 83 b9 42 d0 bf
       -0.1567745748040263 -0.25407255051607475
000100 4d c8 e4 3b 14 8a e6 bf 20 4c f9 4b 70 a2 d3 3f
       -0.7043553514288391 0.306789468949491
000110 3d 61 83 52 eb 54 c7 3f 67 2a 27 46 41 ea da bf
       0.18227902916874852 -0.42054778910520557
000120 0d f1 b7 91 2f 32 db bf c8 d2 ef 22 de e0 ce 3f
       -0.42493809919666675 0.2412374182310002
000130 2e 1b 24 7d 7e fd d2 3f 99 84 ac 2b a0 46 d0 3f
       0.2967220518188921 0.25431064858464364

bias f8 [10]
000000 46 e3 61 66 f6 40 d4 3f 9a 06 93 c3 84 eb d5 3f
       0.3164649963214753 0.34249991511397015
000010 99 c1 14 7b cc ff ed 3f 4c 48 bc 4c a0 1c f7 3f
       0.9374754337241483 1.4444888112525573
000020 24 94 48 27 77 e4 d8 3f 45 f2 2b ad 3f 5e d7 bf
       0.3889444240215332 -0.36512748633666475
000030 c2 5a e3 70 13 5e c9 3f bd b3 91 31 74 7f e9 bf
       0.1981834698878711 -0.7968083351275862
000040 41 7f 50 3a 5f c2 e6 3f f1 bc 6f c6 6c e6 df 3f
       0.7112270487741413 0.4984390199524134

weight f8 [10, 10]
000000 e2 d3 b6 27 39 ed 9e 3f 4d 98 a0 9b 87 ae bd 3f
       0.03020180992981015 0.11594436215872968
000010 e3 52 0c ac f2 7b d0 bf e8 ff 4b 74 76 0e e0 bf
       -0.25756518174720905 -0.5017654677794754
000020 e5 52 84 af e8 b5 c3 bf ec e8 63 37 06 7a d6 3f
       -0.15398891992722166 0.35119777116018613
000030 a6 5d c2 96 67 26 b2 bf 8b 46 28 ab 2f c0 cd 3f
       -0.07089850836415809 0.23242755753794983
000040 3b 47 ab 3a 97 fe cd bf c7 62 82 32 87 3c c9 bf
       -0.23433199276638014 -0.1971596714618242
000050 2c 74 bd 43 dd ed d2 3f 88 a5 df 84 9c 69 d9 3f
       0.29576808562507284 0.3970710084527913
000060 8f 2a 5d a7 23 e6 e9 3f 0b 3c 86 80 15 ba f2 3f
       0.8093431729151507 1.1704306622011724
000070 71 ba b0 af ad 5c bd 3f 7d dd 42 36 27 23 d2 bf
       0.11469541110339222 -0.28339557932800813
000080 f9 10 d3 60 e4 7c d3 3f 82 40 18 7b c1 95 e9 bf
       0.30449780898585704 -0.799530735415843
000090 28 d5 a6 6a 06 ec e3 3f 4a 7a 2d de 9c ff d3 3f
       0.6225616534272023 0.3124763650611483
0000a0 e5 73 7a 70 03 34 a4 3f 9c a8 46 14 59 21 b4 3f
       0.039459331016793255 0.07863384957332403
0000b0 b0 5f 5e 16 c3 fe c2 3f c9 91 35 d3 17 29 b9 3f
       0.14839972107142563 0.0982832804343793
0000c0 86 38 ba 1e 45 d3 a6 3f 4f eb 10 6d 2b 97 9f 3f
       0.04458061218348157 0.030850103885522725
0000d0 84 bb 58 c9 81 37 d1 bf e7 b0 8b 09 a2 5e d1 3f
       -0.2690128771090985 0.2714009373874106
0000e0 6a 11 1c 3f c7 ca d2 3f 84 3e 42 5d 88 0b ce bf
       0.2936266056351743 -0.23472694924975113
0000f0 e0 4f d7 9c 3f e6 c5 3f 26 f9 03 bd 02 c7 d1 3f
       0.1710891261888028 0.27777164896532935
000100 78 bc 0b 8a fe 6e 9b 3f 85 7a 9a 27 69 6d cf bf
       0.026790597129487698 -0.24552645143281296
000110 d7 76 ef 0b 37 d5 d1 3f f7 b5 7e 73 93 db d0 3f
       0.27863861241881466 0.2634018543129452
000120 26 86 53 a3 fe 20 cf 3f 86 fa 3b 7c 23 12 ca bf
       0.24319441771426503 -0.20367854658248435
000130 e7 da b2 48 3d 0f a9 bf 90 fd 9d 02 4c e3 ce 3f
       -0.04894439232287145 0.24131155135908644
000140 ca a8 4d 6a ac ca e1 3f ae 1d 22 82 1d d8 d5 3f
       0.5559904171216428 0.3413156290848417
000150 e6 d0 f3 71 1b 30 f0 3f 79 11 94 a2 f6 e2 f4 3f
       1.0117449237123366 1.305410990783541
000160 dc c1 17 32 f2 f8 c9 bf 76 6f fa f8 39 e1 f0 bf
       -0.20290973134934986 -1.0549869275773438
000170 61 cf 77 f2 a1 5e f1 3f a5 41 c7 05 35 36 f1 bf
       1.0856036635786597 -1.0757341600147836
000180 7c 1b c8 80 97 04 e2 3f 38 62 9e 8b 91 6f d3 3f
       0.5630605235354404 0.303684603067754
000190 94 f7 a0 fd 64 45 bc 3f 5a 12 99 b3 03 ff d3 3f
       0.11043387596234161 0.3124398473630997
0001a0 da 15 ce a8 18 b1 de 3f 10 19 98 b6 48 df e4 3f
       0.47955910191407514 0.6522563520709657
0001b0 b2 90 98 8c 4b e4 c6 bf c1 d2 dc 21 1c bf 94 bf
       -0.17884201397931104 -0.02026027638131001
0001c0 51 a2 85 75 4c 5b d1 bf 56 5b 66 23 bd b4 c3 bf
       -0.2711974284816608 -0.15395321110255605
0001d0 9f 09 d0 5f c7 40 d2 3f f8 11 1c 11 c8 5d d6 3f
       0.2852037845297221 0.34947396918167284
0001e0 2e d0 9d e1 ea 78 da bf 5b b5 52 64 80 d6 b7 3f
       -0.41363021881921014 0.09311678361219348
0001f0 a8 55 e6 a5 dd fd c0 bf 9d a6 3d 97 86 55 d6 3f
       -0.13274736977170432 0.3489700772248428
000200 51 7a 27 c3 d3 74 b2 bf 71 10 d3 5f 4a 0c d5 3f
       -0.07209514154917797 0.3288751540933453
000210 49 f6 57 a2 64 5b da 3f 6e e9 83 11 81 e6 bd 3f
       0.4118281922709213 0.11679846456164508
000220 c2 da f1 8c fa 91 c1 bf ff 82 6a 6b 7c 0c c2 3f
       -0.13726741678302373 0.1410060429089057
000230 bc 71 b0 e6 40 5c bb 3f 84 5e 9f 72 52 45 c0 bf
       0.1068764270025388 -0.1271155414276458
000240 45 b2 aa d6 88 d8 cf bf b9 32 38 15 29 8a d0 3f
       -0.24879560930038927 0.25843264648646486
000250 89 69 a1 13 96 e4 c1 bf 13 03 b2 8a c1 09 d8 bf
       -0.13978839834710424 -0.3755954603621358
000260 53 80 9e 55 62 3f c2 3f 93 5b ab 08 39 95 cd 3f
       0.14255932980177252 0.23111641810711755
000270 ce 47 5d e2 a0 36 b5 bf 40 3b 0b 16 50 b3 c6 bf
       -0.08286481405710264 -0.17734719349251726
000280 c7 76 b4 c1 0b 63 99 bf 95 e6 3f 1e 5d 2c a1 3f
       -0.02479189271718132 0.03354159349687539
000290 41 38 c1 8c 5c 6f d5 3f cf 9a fe 0c 29 ac de 3f
       0.3349219679411171 0.47925783413886064
0002a0 51 f3 08 c5 aa dc c4 bf f9 c6 65 7e 4a 95 d9 bf
       -0.16298422451827801 -0.39973699897301135
0002b0 6e 84 1c 02 c6 8d e1 3f 3c e8 17 83 9a b9 d8 bf
       0.5485563317526052 -0.3863283424576627
0002c0 52 55 08 5b c0 10 b0 bf f2 a9 30 35 66 2a c4 3f
       -0.06275560591196452 0.15754392239735143
0002d0 56 c3 6b b5 e4 73 c2 3f bd de ac e7 fc 6d c5 3f
       0.1441617856831054 0.167419064638798
0002e0 89 05 73 fc 78 24 e3 bf e9 35 53 37 6f 6f e9 bf
       -0.5982022219324544 -0.7948528366629805
0002f0 fe d8 a6 a0 2d 7c ce bf 26 e1 ea 41 c8 42 d3 3f
       -0.23816461891482982 0.30095106541877426
000300 03 83 1f 2c 06 ab 85 3f 20 dd 85 63 a7 78 d0 3f
       0.010580108853845532 0.2573641273406384
000310 9d b4 b2 35 0e 0d d9 bf 94 3c e3 f4 7a 37 d4 bf
       -0.3914218449015808 -0.31588624872979065

bias f8 [10]
000000 02 fd a3 a7 c3 6f e1 bf 99 84 28 8f e2 68 c0 3f
       -0.5448931001882615 0.1282008360877043
000010 67 cc 33 95 bd 2e e5 3f 12 16 f2 07 1c 9a 55 3f
       0.6619556345089109 0.0013184808483698335
000020 07 06 9b 78 60 24 c3 bf c3 3b 92 80 26 4e d1 3f
       -0.14954763306563754 0.2703949218347896
000030 6c 7e 20 e7 ae a7 e1 bf 39 92 4e 42 37 88 d4 3f
       -0.5517191423604806 0.3208139560249808
000040 78 57 b3 5e b5 f6 da bf 88 4e 96 95 ba 75 c6 bf
       -0.4213078903970806 -0.17546779922541966

weight f8 [10, 10]
000000 dc b9 90 37 f7 ec e2 bf 9e f3 e6 72 17 b1 f3 3f
       -0.5914264760265797 1.23073525317816
000010 a7 0b ec 37 14 65 ce bf f8 da 36 75 c4 d9 b5 3f
       -0.2374596856171511 0.08535411702801443
000020 f0 7c f9 5b ed 2b fb 3f d4 ea 2b bb a0 ca e5 3f
       1.6982244103199342 0.6809848457044958
000030 b0 71 bd b0 7d c4 c7 3f 9f 02 1a 50 9d 60 7f bf
       0.1856839287746772 -0.007660498145583588
000040 31 c0 cf 8e 87 ba d3 3f 51 7a 7c 36 7d cb eb bf
       0.3082598585742771 -0.8685899795708086
000050 0b b9 02 9c b5 d9 cb bf 59 7e 47 da a8 af dd bf
       -0.2175814639826473 -0.46384640995345233
000060 b7 6a 5e 02 d5 2d e2 3f b1 0c 94 12 4b 9e b6 bf
       0.5680947347894606 -0.08835286334583504
000070 96 4d 45 af 1e 8b ca bf 8e 52 35 6b a3 d7 ce 3f
       -0.20737060125484835 0.24095576033382254
000080 3b 81 43 6b 11 15 d6 bf 29 c6 e7 9b 30 52 d5 3f
       -0.34503589129419127 0.33314147210248507
000090 65 fc 7a e7 0b d8 cc bf 38 fd f9 a3 a7 69 c5 bf
       -0.2253432159686525 -0.1672868300119974
0000a0 8f 40 d1 8d c8 87 c0 bf 8b 6d 3b 7c 19 56 a2 3f
       -0.12914378094365417 0.03581313745027178
0000b0 66 37 99 49 3a 9d ae bf 04 25 b1 3d 93 84 86 3f
       -0.05979330204409798 0.010995054550351664
0000c0 73 ce d7 d8 42 a6 b2 bf 37 5f 20 11 38 50 b3 3f
       -0.07284944337862402 0.07544279497267047
0000d0 24 ad d3 7b e1 c6 d2 bf a6 eb 5a 8c e3 5a c2 3f
       -0.29338872044054853 0.14339870789794168
0000e0 9d 84 38 e1 37 79 dd bf 57 8d 71 10 34 18 b4 3f
       -0.46052357668129124 0.07849431420759366
0000f0 08 1c 7e a4 40 58 c4 bf e4 2e a3 ff 24 d0 d2 bf
       -0.1589432528673742 -0.2939541336497611
000100 68 05 c6 5b 7c 25 c6 3f 33 8a ae 53 8d a8 c2 3f
       0.17301897507790476 0.14576880060219963
000110 3d bc 5d f7 7c 6f d6 bf ef 9e 1a 50 c5 a7 d5 3f
       -0.3505546966252416 0.338364914156485
000120 81 89 76 e8 46 57 e3 bf 4a 21 20 98 9f c0 d1 3f
       -0.6044039287847199 0.2773818002319969
000130 63 a3 f3 58 ab d1 d3 bf 43 f9 e9 1d 53 3a 74 bf
       -0.30967220007601365 -0.00493843524475174
000140 62 f2 49 30 fd dc c7 3f 9e d0 62 af db 88 ae 3f
       0.1864315496240066 0.059637894782470044
000150 d7 d6 63 7d 9f e0 e1 bf 72 78 b7 8a 99 01 a0 3f
       -0.5586698006652239 0.0312622052986037
000160 88 ca 1a 7b 78 dc e4 3f 42 2b 04 4b cf 24 c1 3f
       0.6519129185092689 0.13393584406761688
000170 a5 63 4e 01 b2 9c d0 3f 30 fe 88 b5 88 00 b7 bf
       0.25956392409858103 -0.08985189849863029
000180 6e 08 0c 12 8c 6d df 3f db 2e 28 a1 fe 15 b9 bf
       0.4910612274399061 -0.09799186167236533
000190 c1 f7 a3 12 51 a8 d0 bf 4e 3a c1 cd de d3 b9 3f
       -0.2602732355152249 0.1008891346293492
0001a0 bc d9 9f 54 ad 81 d5 3f 2b d1 12 03 dc 4d cb bf
       0.33603986038306366 -0.21331358099053807
0001b0 51 41 2f 17 71 d1 df bf 48 36 2f cc 6f 66 c5 3f
       -0.4971583105480209 0.16718862028067094
0001c0 ff 22 0b 64 a7 d1 da bf be 58 c7 24 ad 29 c1 bf
       -0.4190462567317325 -0.13408436103663307
0001d0 5a 16 3c a1 7e 92 dd bf 33 23 1c b1 de 24 cb 3f
       -0.4620663237149977 0.21206267974800994
0001e0 5a c5 66 48 cc 9d dd bf bc 40 7a ff 5e 95 f0 3f
       -0.46275622435049046 1.0364675502387817
0001f0 2d 3f ef a2 a9 e7 c1 3f 30 e1 df d6 2b fb be bf
       0.13988228278912498 -0.12102006908378793
000200 3b 2c a4 61 7b cf f8 3f 5c 17 db 98 bd 8f e2 3f
       1.5506547750581052 0.5800464616265617
000210 c0 ee 54 dd 93 85 c5 3f f6 c1 7a 2c ea cc c6 3f
       0.168138964721825 0.1781285016236464
000220 ef a0 a7 a0 0e b7 d8 3f 84 24 7c d1 ac f1 da bf
       0.3861729210752988 -0.42100067574990185
000230 61 c5 0b 4a 5b 8a bf 3f 39 09 81 8a 67 9b e1 bf
       0.12320490415347286 -0.5502202706486862
000240 f5 c8 fe 49 d1 db d3 3f db 67 3c ad b0 d4 c8 3f
       0.31029159761523256 0.19399078806674094
000250 57 44 10 81 20 99 f0 bf f7 9b ac 9d 29 92 cb 3f
       -1.0373845140022888 0.21539802740991806
000260 8a 3c 5a 31 36 41 cd bf a2 5b 2e b0 0a 3d b5 bf
       -0.22855260286130302 -0.08296267319961584
000270 d2 f5 88 f2 a3 49 e4 bf bd b5 e0 d8 35 c3 c7 bf
       -0.6339893090259301 -0.1856448468183042
000280 ff ac 27 e1 6c 83 d0 bf 23 34 bb ca 44 b6 c2 bf
       -0.25802156436721185 -0.14618739985454096
000290 a1 ff 09 65 67 f8 c3 3f df 12 a4 05 82 bc be bf
       0.156018184981801 -0.1200639022609482
0002a0 70 ed a3 a5 2b 63 eb bf f6 d7 ed 67 64 3a c2 3f
       -0.8558557734644818 0.14240698885595265
0002b0 52 34 1e 79 0d 3c db bf e8 66 11 c6 db e8 c2 bf
       -0.42554032161644273 -0.14773127719200052
0002c0 c6 1f e7 f9 92 80 e6 bf ce 57 69 99 af 3d cb 3f
       -0.7031950837053891 0.21282000532909112
0002d0 0b 2e 66 1f e2 64 d8 bf 89 9f 8a d9 40 0b c6 3f
       -0.3811574274666049 0.1722184240545597
0002e0 3e ed a5 05 9d 9e cd 3f 88 b6 de 66 98 94 b3 bf
       0.23140299583233487 -0.07648613463853782
0002f0 62 22 9a 15 af af b6 3f 64 42 b0 bd 87 24 c4 bf
       0.08861822392840105 -0.15736481439718653
000300 74 82 9e ee 56 4e cd bf 69 84 c0 1d da 5a d9 3f
       -0.228953234208365 0.3961701670214724
000310 67 bd 26 6b 07 91 e0 bf 6d 3c d5 d0 f6 02 8f bf
       -0.5177037327575079 -0.015142372367931334

bias f8 [10]
000000 6c 8e 6e 94 c6 a3 ad bf ac 89 07 aa a1 36 eb 3f
       -0.057890134448169345 0.8504188843619906
000010 38 7b 99 11 51 9a c5 3f f2 8b 9b 0b f8 75 eb 3f
       0.1687718711791264 0.8581505037985819
000020 f3 fc 5d 28 9e 13 d6 bf 5f 34 2e dd 84 22 ec 3f
       -0.3449473756990777 0.8792137451106433
000030 9d 50 56 0f 14 72 d9 bf 7a 80 5a ab 40 70 dc 3f
       -0.3975877904679324 0.4443513558744666
000040 db 6a 89 32 71 98 d8 3f 49 f6 dd 07 c7 cc e3 3f
       0.3843043321154888 0.6187472489979849

weight f8 [1, 10]
000000 03 ba 6d f3 6b f0 06 c0 08 11 50 60 0b 54 02 40
       -2.8673933999882606 2.291037323420941
000010 a2 bd a1 3d 72 7d e0 3f c8 ac fe 6b 31 a1 02 40
       0.5153132632967081 2.3287075459571476
000020 b2 ea cf 0e 2d 1f f9 bf 16 64 d9 fb 32 d2 01 40
       -1.5701113298988898 2.22763630635428
000030 26 73 6a be ac d8 04 c0 69 ad 6f 61 37 8b 00 40
       -2.605798232673254 2.0679767238813622
000040 f1 9c 84 d0 e2 63 00 40 4f 75 0f 92 e7 08 f3 3f
       2.0487724581213276 1.1896739678844204

bias f8 [1]
000000 66 98 06 df a1 e2 06 40
       2.8606603073013046
